models/banknifty_lstm.pt (torch, 211717 bytes, 9 tensors)

lstm.weight_ih_l0 f4 [256, 7]
0	0x3e10e0f2	0.1414831
1	0xbfc00ad8	-1.5003309
2	0x3cba8972	0.022770617
3	0xbe468a3a	-0.19388667
4	0xbf66f7d7	-0.90221924
5	0xbccf1b31	-0.02528152
6	0x3eb9aaf1	0.3626323
7	0x3eb77a41	0.3583546
8	0xbea3bd3e	-0.31980318
9	0x3df9191b	0.121629916
10	0xbd267333	-0.040637206
11	0x3ec6ef07	0.38854238
12	0x3e51d9eb	0.20493285
13	0xbe7fae83	-0.24968915
14	0xbe34e012	-0.17663601
15	0x3eb2931d	0.34877864
16	0x3e1ac633	0.1511467
17	0x3d3d0781	0.046149734
18	0xbea30c73	-0.31845436
19	0xbe207109	-0.1566812
20	0xbcf5acd7	-0.029989643
21	0x3d61acbf	0.055096384
22	0x3c9f7e95	0.019469539
23	0x3e30b41e	0.17256209
24	0xbeeb9f9e	-0.46020216
25	0xbd20ca0d	-0.03925519
26	0x3e68093f	0.22659777
27	0xbc15ae8e	-0.009135855
28	0xbc41f785	-0.011838798
29	0xbeede421	-0.4646311
30	0x3ec21300	0.3790512
31	0xbe593707	-0.21212398
32	0xbe0728f1	-0.13199212
33	0xbe174bcb	-0.14775006
34	0xbe4515fe	-0.1924667
35	0xbe7da082	-0.2476826
36	0xbd707d6c	-0.05871336
37	0x3eaa80d5	0.33301416
38	0xbd651a80	-0.055933475
39	0xbefb4ad4	-0.49080527
40	0x3f277d47	0.65425533
41	0xbb600bf2	-0.0034186807
42	0x3e711d6b	0.23546378
43	0xbe7ec80f	-0.24881004
44	0xbd85a77c	-0.06526086
45	0x3dda272f	0.10652005
46	0xbda09385	-0.07840637
47	0x3e353452	0.1769574
48	0x3d51745a	0.051136352
49	0xbe90efbd	-0.28307906
50	0x3e13815f	0.1440482
51	0x3f12a42e	0.5728177
52	0xbccb7baa	-0.024839241
53	0x3e093c08	0.13401806
54	0x3e752621	0.23940326
55	0x3ea5ccb6	0.32382745
56	0x3d3d115c	0.046159133
57	0xbd2b6f27	-0.04185405
58	0x3f112ce6	0.56709135
59	0x3e0b0c94	0.13579017
60	0xbeb78321	-0.3584223
61	0x3f062a56	0.5240835
62	0x3b94ac4d	0.0045371414
63	0xbf172022	-0.59033406
64	0x3efe27ac	0.49639642
65	0x3d1dc7cc	0.03852062
66	0xbe180ecf	-0.14849399
67	0x3d303f6e	0.04302924
68	0xbe3722c2	-0.17884353
69	0x3ca9483d	0.020664329
70	0xbeae4998	-0.34040523
71	0x3d8cef59	0.068815894
72	0x3efb2b8a	0.49056655
73	0x3ed60f5c	0.41808593
74	0x3e7bd550	0.24593091
75	0xbe980998	-0.2969482
76	0x3e815625	0.25261036
77	0x3e4a0aed	0.1973073
78	0x3e8df282	0.2772408
79	0xbe13ea0f	-0.14444755
80	0xbd94ae5d	-0.0725982
81	0xbe213e19	-0.15746345
82	0xbc0a524a	-0.008442471
83	0x3eafc6d6	0.34331387
84	0xbca75c41	-0.020429732
85	0x3f05df30	0.5229368
86	0x3e940526	0.28910178
87	0x3e49d717	0.19710957
88	0x3d803c86	0.06261544
89	0x3ea90cfc	0.3301772
90	0xbe7e66ec	-0.24843949
91	0x3bfeecf8	0.0077797137
92	0xbbb669ca	-0.0055668103
93	0x3eab1920	0.33417606
94	0x3dede498	0.116158664
95	0x3d629a4f	0.05532294
96	0x3d2e2f25	0.04252543
97	0xbdf99595	-0.12186734
98	0xbe098f28	-0.13433516
99	0x3f1e36c4	0.61802316
100	0x3f0bda14	0.54629636
101	0xbe87b8b3	-0.26508102
102	0xbd836a95	-0.06416813
103	0x3ece8c68	0.40341496
104	0x3e495338	0.19660652
105	0x3d9ab5f6	0.075542375
106	0x3d76d86d	0.060264993
107	0x3ec59523	0.38590345
108	0xbe2c2aff	-0.16813277
109	0xbe670cc2	-0.2256346
110	0x3e29453a	0.16530314
111	0x3ee0d5b5	0.43913046
112	0xbea89d76	-0.32932633
113	0xbdbdf75a	-0.09275694
114	0xbe9c20d0	-0.30493784
115	0xbe0c2b60	-0.13688421
116	0xbde8117c	-0.1133146
117	0x3c6750c9	0.014118382
118	0xbc89dfab	-0.016830286
119	0xbd739bc1	-0.05947471
120	0xbe3fb85a	-0.18722668
121	0x3dee96cb	0.11649855
122	0x3e8a71a3	0.27039823
123	0xbde371d7	-0.111056976
124	0xbe3f0182	-0.18652919
125	0xbe83df4f	-0.25756308
126	0x3eedfd4c	0.46482313
127	0xbe6872d0	-0.22700047
128	0xbe2d7181	-0.1693783
129	0x3b975e05	0.0046193623
130	0x3dfb33b8	0.12265724
131	0x3ea12cfa	0.31479627
132	0xbe4103cb	-0.18849103
133	0x3e235dfd	0.15953822
134	0x3d012f50	0.03153926
135	0xbec6d808	-0.38836694
136	0x3e1dd148	0.15411866
137	0x3daf30d0	0.08554232
138	0xbe42804b	-0.18994252
139	0xbe63e10e	-0.2225382
140	0x3ec90163	0.3925887
141	0xbe5b8ae8	-0.21439707
142	0xbc917e7f	-0.017760513
143	0xbeba3e35	-0.36375585
144	0xbd78dd8c	-0.06075816
145	0x3df9f2d3	0.12204518
146	0x3e1d9b9b	0.1539139
147	0x3d98b413	0.074562214
148	0x3c7486f2	0.014924752
149	0xbef66013	-0.48120174
150	0xbee3dbcb	-0.44503626
151	0xbe761f3d	-0.24035354
152	0x3e5a3480	0.2130909
153	0x3e1d9914	0.15390426
154	0xbe5eb79b	-0.21749727
155	0x3dcf6a1b	0.1012766
156	0x3cf35950	0.029705673
157	0xbd5dc71a	-0.054144956
158	0xbe62cff9	-0.22149648
159	0x3df1ea52	0.11812271
160	0x3e826b4c	0.25472486
161	0x3cc90440	0.02453816
162	0x3dbf87f5	0.093521036
163	0x3e54b5b4	0.20772439
164	0x3e22c986	0.15897188
165	0xbd19df43	-0.037566435
166	0x3d1a35a4	0.037648812
167	0x3e3daca1	0.18522884
168	0x3dabaf5c	0.083830565
169	0x3d390729	0.045172844
170	0x3e21202e	0.15734932
171	0x3c54a083	0.012977722
172	0x3d74a203	0.05972482
173	0xbe8977e4	-0.26849282
174	0x3e66e949	0.22549929
175	0xbe241d24	-0.16026741
176	0x3e1c15c2	0.15242675
177	0x3e1498c9	0.14511408
178	0x3e1cb61a	0.15303841
179	0xbd1184b8	-0.03552696
180	0x3e429728	0.19002974
181	0x3e8c4bbd	0.27401534
182	0xbe927cf3	-0.28610954
183	0x3e87c11b	0.26514515
184	0xbeeb23cc	-0.45925748
185	0x3d93ba56	0.07213275
186	0x3e6c46d5	0.23073895
187	0x3c1e9411	0.0096788565
188	0xbde7226a	-0.11285861
189	0x3e84c4ba	0.2593134
190	0x3eab6945	0.33478752
191	0x3f086a45	0.53287154
192	0x3dc46e07	0.095912986
193	0x3b9bc98f	0.0047542523
194	0x3e61e9ba	0.22061816
195	0xbd057452	-0.032581635
196	0xbe55ad30	-0.20866847
197	0x3dc0e3db	0.0941846
198	0x3e3ce09b	0.18445055
199	0x3e1c1870	0.15243697
200	0x3eab5685	0.33464447
201	0x3eb0d09d	0.3453416
202	0x3e842be0	0.25814724
203	0xbd70ef56	-0.058822
204	0xbd4158b8	-0.04720375
205	0xbe919a8b	-0.2843822
206	0x3e51ce05	0.20488746
207	0x3f04f0a0	0.51929665
208	0xbe84d9ad	-0.25947323
209	0xbdd7fece	-0.10546647
210	0xbe39130e	-0.18073675
211	0xbe9e879f	-0.30962846
212	0x3eacbbb8	0.33736968
213	0xbd53a6b1	-0.05167264
214	0xbccca751	-0.024982126
215	0x3f37a4d3	0.71735877
216	0x3f1168c4	0.56800485
217	0x3e71daa4	0.23618561
218	0xbe08c81a	-0.13357583
219	0x3eac2643	0.3362294
220	0x3cdd7fa6	0.027038407
221	0x3e2e9a14	0.17050964
222	0x3e8f9166	0.28040618
223	0x3e8a7915	0.27045503
224	0xbc4df17e	-0.012569783
225	0x3eb74a7d	0.35799018
226	0x3e707bd9	0.23484744
227	0xbe9eb796	-0.3099944
228	0xbe96cd99	-0.29453734
229	0x3e339ad8	0.17539537
230	0x3b7af7c3	0.003829465
231	0xbe1e4636	-0.15456471
232	0x3ef270b5	0.47351614
233	0xbe117a6d	-0.14206858
234	0x3df104dc	0.11768505
235	0xbed795bd	-0.4210643
236	0xbc29e74b	-0.010370086
237	0x3e072dab	0.13201015
238	0x3d1d06a3	0.038336407
239	0x3e9d7daa	0.30759937
240	0x3ea8ed0b	0.3299335
241	0xbf0ebabe	-0.55753696
242	0xbdc4a7f6	-0.096023485
243	0xbc9d5210	-0.01920417
244	0x3d3952bb	0.045244914
245	0xbc904fcf	-0.01761618
246	0xbdb4100f	-0.087921254
247	0x3e6fa598	0.23403013
248	0xbf21b008	-0.6315923
249	0xbe4901f9	-0.19629659
250	0x3d21a7e7	0.039466765
251	0x3e3c39ec	0.1838147
252	0x3d1662a3	0.03671516
253	0x3e42cdbb	0.19023792
254	0x3e8540af	0.26025912
255	0xbd005d31	-0.031338874

lstm.weight_hh_l0 f4 [256, 64]
0	0xbdd1747a	-0.10227294
1	0x3eee663e	0.4656238
2	0xbe22d15e	-0.1590018
3	0x3ec71f7d	0.3889121
4	0x3e290a81	0.16507913
5	0x3e3f9e61	0.1871276
6	0xbe064ff5	-0.13116439
7	0x3e85422c	0.26027048
8	0x3e660c77	0.22465692
9	0xbe4b2a83	-0.19840436
10	0x3e0bdc68	0.13658297
11	0x3e700cf8	0.23442447
12	0xbd822ded	-0.06356416
13	0xbec62d49	-0.38706425
14	0xbd2a7b45	-0.041621465
15	0xbe9d3dfb	-0.3071135
16	0xbdc5665e	-0.096386656
17	0x3da390a7	0.079865746
18	0xbdd04680	-0.10169697
19	0xbe2ea5b1	-0.17055394
20	0x3de74ca2	0.112939134
21	0x3cbd70a9	0.02312501
22	0xbe86e72b	-0.26348242
23	0xbdd70939	-0.10499806
24	0xbe9681e1	-0.29395965
25	0x3d7cffa4	0.061767235
26	0x3d62f527	0.055409577
27	0xbe80680d	-0.25079384
28	0x3e70974f	0.2349522
29	0x3e4720cf	0.19446109
30	0x3e6100e8	0.21973002
31	0xbe0b172a	-0.13583055
32	0xbd592a0f	-0.053018626
33	0x3e89d025	0.26916614
34	0x3cfc0b7f	0.0307672
35	0xbe947dce	-0.2900223
36	0x3da3b766	0.07993965
37	0x3ea77012	0.3270269
38	0xbca5cb3e	-0.020238515
39	0xbdfcf559	-0.12351484
40	0xbea2214d	-0.3166603
41	0xbef8e8bd	-0.48615065
42	0xbe542804	-0.2071839
43	0x3e2ad75c	0.16683716
44	0xbe9df165	-0.30848232
45	0xbed75002	-0.4205323
46	0x3edca223	0.4309245
47	0x3e256247	0.16150771
48	0xbe5b61ef	-0.21424077
49	0x3d53757c	0.051625714
50	0x3e75ffe5	0.24023397
51	0x3db60213	0.088871144
52	0xbe412c6d	-0.18864603
53	0x3dc924c3	0.09821465
54	0xbe1bb1b7	-0.15204512
55	0xbe2634b1	-0.16231038
56	0xbd0101d9	-0.031495903
57	0x3e0395b6	0.12850079
58	0x3d210ee0	0.039320827
59	0xbe5b1a00	-0.21396637
60	0xbe0a85c4	-0.1352759
61	0x3ea05f46	0.31322688
62	0xbe36ec1b	-0.17863505
63	0xbd901925	-0.07036046
64	0x3f40adca	0.7526518
65	0xbd2fd0a2	-0.042923577
66	0x3e7912fc	0.24323648
67	0xbec8773d	-0.39153472
68	0xbf034a46	-0.5128521
69	0xbe95dff8	-0.29272437
70	0xbe315327	-0.17316876
71	0xbc650c35	-0.013979961
72	0x3c3199ef	0.010839923
73	0x3f0ee761	0.55821806
74	0x3e8b22d7	0.27175018
75	0xbe1684d0	-0.14699101
76	0xbeb025f9	-0.3440397
77	0x3e135df7	0.14391313
78	0xbe807ac1	-0.25093654
79	0xbecd2302	-0.4006577
80	0x3e1071c9	0.14105906
81	0xbe652178	-0.22376049
82	0x3c522361	0.012825818
83	0xbec89fd4	-0.3918444
84	0x3e296a7d	0.16544528
85	0x3eb0013b	0.3437594
86	0x3ee19d70	0.44065428
87	0x3eca3059	0.3949001
88	0x3f0b51a9	0.5442148
89	0x3d62510e	0.05525308
90	0xbe20f04e	-0.15716669
91	0x3dfd6d35	0.12374345
92	0xbd91c0d8	-0.0711686
93	0x3eec6c7c	0.46176517
94	0xbe908723	-0.282281
95	0x3e95fb97	0.2929351
96	0x3f033da8	0.51265955
97	0x3eb63fea	0.35595638
98	0xbda3fd0b	-0.080072485
99	0xbcef013a	-0.02917539
100	0x3e275fd0	0.16345143
101	0x3e906d6f	0.2820849
102	0x3e972469	0.29519966
103	0xbe31ab2b	-0.17350452
104	0xbe96ad4b	-0.29429087
105	0x3ef81288	0.48451638
106	0xbe88e4fb	-0.26737198
107	0x3ecf8f35	0.40538946
108	0xbcf1cc85	-0.029516468
109	0x3ea9c408	0.33157372
110	0x3ec04ab1	0.37556985
111	0xbedf1331	-0.4356933
112	0x3e10f7e1	0.14157058
113	0x3f033c5c	0.51263976
114	0xbea69950	-0.32538843
115	0x3e492324	0.19642311
116	0xbe6b679e	-0.22988746
117	0xbea288de	-0.31745046
118	0x3f00b51c	0.5027635
119	0xbeeb74f8	-0.45987678
120	0xbf3e6a3a	-0.7438084
121	0x3e827d25	0.25486103
122	0x3d553144	0.052048936
123	0xbea3578f	-0.3190274
124	0x3ecc6f12	0.3992849
125	0x3ea2ffe1	0.31835845
126	0x3ed9e316	0.42556065
127	0x3e273fa3	0.16332869
128	0xbe200b9f	-0.15629433
129	0x3d97955c	0.07401535
130	0xbe905237	-0.28187725
131	0x3dc313ac	0.095252365
132	0xbd5fb40d	-0.05461507
133	0x3e87826e	0.26466697
134	0xbf217d44	-0.63081765
135	0xbbb5925c	-0.005541129
136	0xbe4d9563	-0.20076518
137	0x3dd30db6	0.103053495
138	0xbdd75593	-0.10514369
139	0x3e04f8ff	0.1298561
140	0x3d0d2729	0.034461174
141	0xbdf5a769	-0.119948216
142	0x3e4fc0e9	0.20288433
143	0xbda74c35	-0.08168832
144	0x3ebe6ae8	0.37190938
145	0xbe0617b8	-0.13094985
146	0x3eb7b8ba	0.35883123
147	0x3e30724b	0.172311
148	0xbe3396d1	-0.17538
149	0x3d91cd5e	0.07119249
150	0x3d702ecc	0.05863838
151	0xbe2a179d	-0.1661057
152	0xbeb8b8ce	-0.36078495
153	0x3c8816a4	0.016612358
154	0xbe2b8744	-0.16750818
155	0xbe55052d	-0.20802756
156	0xbf0f1143	-0.55885714
157	0x3f0719fe	0.52774036
158	0x3e840a21	0.25788978
159	0xbee0ae64	-0.4388305
160	0xbe39b8cb	-0.18136899
161	0xbe0398e8	-0.12851298
162	0x3dfbde95	0.122983135
163	0x3d1190ea	0.03553859
164	0xbdb674f1	-0.089090236
165	0xbf3add7d	-0.72994214
166	0xbdc51bd0	-0.096244454
167	0xbe1f9754	-0.15585071
168	0x3d27323b	0.040819388
169	0xbe9f0068	-0.31054997
170	0x3c608220	0.013702899
171	0xbee1e76e	-0.4412188
172	0x3f2a8f2a	0.666247
173	0x3f14bd12	0.58101
174	0xbce08627	-0.027407719
175	0x3e65146b	0.2237107
176	0xbddfef90	-0.10934365
177	0xbd78ea9d	-0.06077062
178	0xbdfe46cf	-0.124158494
179	0xbdcae8ca	-0.09907682
180	0x3e586215	0.21131165
181	0x3c1cccd3	0.009570318
182	0x3e618113	0.22021894
183	0x3e8be334	0.2732178
184	0x3f1ede51	0.6205798
185	0x3db0694a	0.08613832
186	0xbee015f7	-0.43766758
187	0x3c9047e1	0.0176124
188	0x3e461c13	0.19346647
189	0xbde05533	-0.109537505
190	0xbe61e728	-0.22060835
191	0xbe269789	-0.16268744
192	0xbe8bda72	-0.27315098
193	0x3e9caa35	0.30598608
194	0x3f03c984	0.51479363
195	0x3ec3cf66	0.3824417
196	0x3ebd43a2	0.36965662
197	0xbdc57721	-0.09641863
198	0xbeb91c0d	-0.36154214
199	0xbea4f4e5	-0.3221809
200	0x3eb22614	0.34794676
201	0x3e5b3161	0.21405555
202	0x3d8d2511	0.068918355
203	0xbd9c060d	-0.076183416
204	0x3d8b2d89	0.067957945
205	0x3ede10a1	0.43372062
206	0xbeb8dc38	-0.36105514
207	0xbe4eca1e	-0.20194289
208	0x3d7b6eaf	0.061384853
209	0x3e23f771	0.1601236
210	0xbf6cde9d	-0.9252718
211	0xbda2d7a9	-0.0795129
212	0x3efd0a62	0.49421984
213	0x3bbe73b3	0.0058121323
214	0x3e6b66f0	0.22988486
215	0xbd458a7e	-0.04822778
216	0x3d7bf005	0.061508197
217	0xbd72e513	-0.059300493
218	0x3e789cfd	0.24278636
219	0xbe63cfe6	-0.22247276
220	0xbd8f5f08	-0.07000548
221	0x3f1ebf8e	0.6201104
222	0xbea064be	-0.3132686
223	0xbd86f43e	-0.06589554
224	0x3ecbd946	0.39814204
225	0x3dd54715	0.104139484
226	0xbd381958	-0.044946045
227	0xbf181006	-0.5939945
228	0xbe137bcf	-0.14402698
229	0xbe3434f9	-0.17598332
230	0xbe2008df	-0.15628384
231	0xbe14a60e	-0.1451647
232	0xbdb94523	-0.0904639
233	0xbe3328b7	-0.17496
234	0xbd9df105	-0.077119865
235	0x3e6c9d8a	0.23106971
236	0x3e0cb489	0.13740744
237	0x3dfbfcb3	0.12304058
238	0x3decedfc	0.115688294
239	0xbe3949be	-0.18094537
240	0x3e976ca4	0.29575074
241	0x3d6eaaa8	0.05826822
242	0xbcea3419	-0.028589295
243	0xbd933ad3	-0.07188954
244	0x3cc46e36	0.023978334
245	0xbe9196a0	-0.2843523
246	0x3d25d4b4	0.040486053
247	0x3e331975	0.1749018
248	0xbd031995	-0.03200682
249	0x3f00f44e	0.5037278
250	0x3eb93345	0.36171928
251	0x3dec20aa	0.11529668
252	0x3ec021c2	0.37525755
253	0xbea88eec	-0.3292154
254	0x3e2b3416	0.16719088
255	0x3db328f5	0.08748046

lstm.bias_ih_l0 f4 [256]
0	0xbc2d584f	-0.010580136
1	0xbd6064bf	-0.05478358
2	0xbb5e8901	-0.0033956172
3	0xbca7038d	-0.020387435
4	0x3d26040b	0.0405312
5	0xbdd70481	-0.10498906
6	0x3ecd5cc4	0.40109837
7	0xbe84e0f5	-0.2595288
8	0xbe88786d	-0.26654378
9	0xbe6200d0	-0.22070622
10	0x3d8ec7b2	0.069716826
11	0xbd3185cc	-0.04334049
12	0xbca521f5	-0.020157794
13	0xbcc7ec87	-0.024404777
14	0xbd7e3dbf	-0.062070604
15	0xbe7cdcf0	-0.24693656
16	0x3d07a1a5	0.03311314
17	0x3e8151e1	0.2525778
18	0x3d479c9f	0.04873335
19	0x3dbae2cd	0.0912529
20	0x3bb38b0a	0.005479221
21	0x3dc0fe22	0.09423472
22	0xbe6dabc3	-0.23210053
23	0xbda9320b	-0.08261498
24	0xbd23b838	-0.039970607
25	0xbdb2bbda	-0.08727236
26	0x3e39f35b	0.18159239
27	0xbea6c77c	-0.3257407
28	0x3dd37f86	0.103270575
29	0xbd37332e	-0.044726543
30	0xbea4390f	-0.32074782
31	0x3ea9422c	0.33058298
32	0xbe552550	-0.20815015
33	0x3df686ab	0.120374046
34	0xbe0aa617	-0.13539921
35	0x3de5c38e	0.1121894
36	0xbe752d45	-0.2394305
37	0x3da66af2	0.08125867
38	0xbe13dbd2	-0.14439324
39	0x3d845a54	0.06462541
40	0x3ec491c6	0.38392466
41	0x3e560e62	0.20903924
42	0xbdc57d06	-0.09642987
43	0x3e8e86a8	0.2783711
44	0x3db4fe7d	0.08837602
45	0x3e9069df	0.28205773
46	0x3bfe5b16	0.007762323
47	0xbe18281c	-0.1485905
48	0x3e6f9955	0.23398335
49	0x3d947ab1	0.07249964
50	0xbe0cbdaf	-0.13744234
51	0x3e01dce7	0.12681924
52	0xbdbd8935	-0.09254686
53	0x3eb0e743	0.3455144
54	0x3e593754	0.21212512
55	0x3e0b690f	0.13614295
56	0xbd3a1707	-0.045432117
57	0xbdb8fcbe	-0.09032582
58	0xbe4c1d65	-0.19933088
59	0xbd25c2e4	-0.040469065
60	0xbdd4249c	-0.10358545
61	0xbda0bcb4	-0.07848492
62	0xbeb4045f	-0.35159585
63	0x3e86d1fe	0.26332086
64	0xbe0f9fa1	-0.14025737
65	0x3de79e4b	0.11309489
66	0x3e6c04f9	0.23048772
67	0xbebbcd30	-0.36679983
68	0x3e2df287	0.16987048
69	0x3ddfebda	0.10933657
70	0xbeb7a503	-0.3586808
71	0xbecc4a08	-0.3990023
72	0x3dadf63a	0.084942296
73	0xbdddc5b2	-0.10828723
74	0x3e4e2f89	0.2013532
75	0x3e0fb8da	0.14035359
76	0x3d881814	0.066452175
77	0x3e39d54b	0.18147771
78	0x3e9e3467	0.30899355
79	0xbd94b2c7	-0.072606616
80	0x3e72e26a	0.23719183
81	0x3d4928f7	0.049111333
82	0x3c85426f	0.01626703
83	0x3d9dc92a	0.077043846
84	0x3d354f97	0.044265356
85	0xbe8f9442	-0.280428
86	0xbe657772	-0.22408846
87	0x3e07ffd0	0.13281178
88	0x3e05448e	0.13014433
89	0x3d79c9d2	0.060983486
90	0xbd7e9911	-0.062157694
91	0x3c6bce0f	0.01439239
92	0x3e90ef5f	0.28307626
93	0x3d8dd472	0.06925286
94	0xbe5ed990	-0.21762681
95	0xbd26c5c6	-0.040715955
96	0x3e32b88c	0.17453212
97	0xbe6ed311	-0.23322703
98	0x3dc74f4e	0.09731923
99	0xbdd30393	-0.10303416
100	0xbdb480b5	-0.088136114
101	0x3e5bde9b	0.21471636
102	0xbe5f9f7c	-0.21838182
103	0x3c292561	0.010323853
104	0xbd442ecd	-0.047896195
105	0x3cd9dfe5	0.026596019
106	0xbd554251	-0.052065197
107	0x3e1a8cf7	0.15092836
108	0x3d94e8f3	0.07270994
109	0x3ddb2124	0.106996804
110	0x3e0b07f0	0.13577247
111	0xbe710a33	-0.23539047
112	0xbe86f538	-0.26358962
113	0x3e5ef536	0.21773228
114	0xbda91020	-0.08255029
115	0x3e287123	0.16449408
116	0xbdf82a5a	-0.12117453
117	0x3de6aea6	0.1126378
118	0xbde6906a	-0.112580135
119	0x3e2a9566	0.16658553
120	0xbdbdeefe	-0.092741
121	0xbe92bd8e	-0.28660244
122	0xbe401276	-0.18757042
123	0xbdf6e334	-0.12055054
124	0x3e0504a6	0.12990054
125	0x3e42d088	0.19024861
126	0xbe408f78	-0.18804729
127	0x3e77b98f	0.24191879
128	0x3daa96cc	0.083295435
129	0x3ca2c1d8	0.019867823
130	0xbe201ae7	-0.15635262
131	0xbba52dcf	-0.005040861
132	0xbe115013	-0.14190702
133	0xbc480ec9	-0.012210556
134	0xbdab0b35	-0.08351747
135	0x3dad2e6e	0.084561214
136	0xbd3cddfd	-0.046110142
137	0x3e2eef17	0.17083393
138	0xbe061631	-0.13094403
139	0xbdaaa6f2	-0.083326235
140	0x3e03d8e6	0.12875709
141	0xbd401915	-0.04689892
142	0x3da88cfd	0.082300164
143	0xbca2a0f8	-0.019852147
144	0x3ced8919	0.028996037
145	0x3d9cec2e	0.07662235
146	0x3ce7071e	0.028201636
147	0x3dbe8d82	0.09304334
148	0xbd8c7741	-0.068586834
149	0x3e22ab58	0.15885675
150	0xbd969122	-0.07351901
151	0x3b743d3b	0.0037267942
152	0x3de78cd5	0.113061585
153	0x3daa4969	0.08314783
154	0xbda49085	-0.080353774
155	0xbd8fa9d7	-0.07014816
156	0x3debb0e5	0.11508349
157	0xbe0471a8	-0.12933981
158	0x3d4fad93	0.050702643
159	0x3cc0135b	0.02344673
160	0x3e6c1a8d	0.23057003
161	0xbd937adf	-0.0720117
162	0xbcbca2a4	-0.023026772
163	0xbd9a5187	-0.07535081
164	0x3dc26dcc	0.09493598
165	0x3e306fcc	0.17230147
166	0x3d082bd9	0.03324494
167	0x3e601268	0.21882021
168	0xbdb4ca95	-0.08827702
169	0x3c200256	0.009766182
170	0x3e168efd	0.14702983
171	0x3dbe48bc	0.09291217
172	0x3b9ed489	0.0048471135
173	0xbad45090	-0.0016198326
174	0xbccd6f2f	-0.02507743
175	0xbb9abb69	-0.004722048
176	0x3d8b696f	0.06807219
177	0x3e0af4c7	0.13569938
178	0x3db4d2a9	0.08829243
179	0x3d8316c3	0.06400826
180	0xbdb07c8e	-0.08617507
181	0x3dcb70e7	0.09933644
182	0x3d44c3ba	0.048038222
183	0xbd90c031	-0.070679076
184	0x3dd18c34	0.1023182
185	0xbd89e5b5	-0.06733266
186	0xbcf163e3	-0.029466575
187	0x3d34df85	0.044158477
188	0xbdf87214	-0.12131134
189	0xbd2b8fad	-0.041885067
190	0xbd323099	-0.043503378
191	0xbe354d52	-0.17705277
192	0x3e6afd7c	0.22948259
193	0xbcd9b619	-0.026576089
194	0xbe8932ad	-0.26796475
195	0xbc6499b2	-0.013952659
196	0x3e3c55fc	0.18392175
197	0xbc2d5c33	-0.010581064
198	0x3ea9efb6	0.33190697
199	0xbc5e21f7	-0.013557903
200	0x3d576233	0.052583884
201	0xbe4dfda7	-0.20116292
202	0x3e46b0e6	0.19403419
203	0x3c595486	0.013264781
204	0x3d119c21	0.035549287
205	0x3d65ca35	0.056101043
206	0x3e0bda8a	0.13657585
207	0x3e078aa6	0.13236484
208	0x3dff4cf9	0.12465853
209	0x3d8f9dce	0.07012521
210	0xbd54cb4c	-0.05195169
211	0x3df80ca6	0.121117875
212	0x3cd2123b	0.025643459
213	0x3d04d663	0.032431018
214	0x3c66501c	0.0140571855
215	0xbcdd7f0b	-0.027038118
216	0x3d010e85	0.031507988
217	0xbd27c417	-0.04095849
218	0x3b20c057	0.0024528706
219	0xbe7506a5	-0.23928316
220	0x3e88bb17	0.26705238
221	0xbdcfdade	-0.101491675
222	0x3e460094	0.19336158
223	0x3e3a384b	0.18185537
224	0xbd93685b	-0.071976386
225	0x3ed1bdc7	0.409651
226	0x3e0a4e64	0.13506466
227	0x3e46688c	0.19375819
228	0xbe1d5a86	-0.15366563
229	0xbb1f21ef	-0.00242817
230	0x3d3026db	0.043005805
231	0x3c9af77b	0.018916836
232	0x3e6e97e2	0.23300126
233	0x3d82e79c	0.06391832
234	0xbd7395dd	-0.059469093
235	0x3d7d1483	0.06178714
236	0x3e272c7f	0.16325568
237	0x3eb61770	0.35564756
238	0x3e439687	0.1910039
239	0x3cc639ae	0.024197426
240	0x3ea1a601	0.31571963
241	0x3d5f2870	0.054481924
242	0x3d50b8ae	0.050957374
243	0x3d6e3d5c	0.058163986
244	0xbd7cb9ae	-0.061700515
245	0x3f0cfb9c	0.55071425
246	0x3e84cf87	0.2593958
247	0x3e8625a6	0.26200598
248	0xbd0501b9	-0.032472346
249	0x3e17aee7	0.14812814
250	0x3db40201	0.08789445
251	0x3da10891	0.07862962
252	0x3e4b1fa9	0.19836296
253	0x3e2871db	0.16449682
254	0xbe0d6dca	-0.13811412
255	0x3df05b35	0.11736146

lstm.bias_hh_l0 f4 [256]
0	0x3d328c93	0.043591093
1	0xbddd8e77	-0.10818189
2	0x3c23bcbb	0.009993727
3	0xbdda3dcd	-0.10656319
4	0x3d5612d4	0.05226405
5	0x3da6c85a	0.08143683
6	0x3e815f6e	0.2526812
7	0xbe1b1450	-0.15144467
8	0xbe845cd8	-0.25852084
9	0xbe09305f	-0.13397358
10	0xbe1dc963	-0.15408854
11	0xbd1ec20b	-0.038759273
12	0x3d8a1470	0.067421794
13	0x3d0acfe2	0.03388966
14	0xbe1cb8f9	-0.15304936
15	0xbe4a8503	-0.19777302
16	0xbca4add1	-0.020102413
17	0x3e5999f1	0.2125013
18	0xbdd198a0	-0.10234189
19	0x3e871f80	0.2639122
20	0x3d76ad80	0.060224056
21	0x3db66c4d	0.089073755
22	0xbe5216d5	-0.20516522
23	0xbe124d10	-0.1428721
24	0x3dd35431	0.103187926
25	0xbd4031e8	-0.046922594
26	0x3e5e103f	0.21685885
27	0xbe348b26	-0.17631206
28	0x3df36650	0.11884749
29	0x3e0edf5e	0.13952395
30	0xbe8a65df	-0.27030846
31	0x3e3a6166	0.18201217
32	0xbe57c2e1	-0.21070434
33	0x3e3bcdf6	0.18340287
34	0x3d071aec	0.03298466
35	0x3aeee0eb	0.001822499
36	0xbe6554bc	-0.22395605
37	0x3e4ffc04	0.2031098
38	0xbe05ca93	-0.13065557
39	0xbde4824b	-0.11157664
40	0x3f012d2c	0.5045955
41	0x3e4125e5	0.18862112
42	0xbdb7f1b1	-0.08981646
43	0x3de53c68	0.11193162
44	0x3d71b68f	0.059011992
45	0x3ec2703c	0.37976253
46	0xbd6d70ca	-0.057968892
47	0xbe61363e	-0.21993348
48	0x3e69c062	0.22827294
49	0x3dd030f3	0.10165586
50	0xbe909a69	-0.28242806
51	0x3dec4cd3	0.115380906
52	0x3cf5d4c1	0.030008676
53	0x3e81c6bb	0.25346932
54	0x3e36fd01	0.17869951
55	0x3e8a331b	0.26992115
56	0x3dc74ca2	0.097314134
57	0x3db14c83	0.086571716
58	0xbdd9d7e2	-0.106368795
59	0x3d634ff3	0.055496167
60	0xbe76ab74	-0.24088842
61	0xbd09a2e6	-0.033602618
62	0xbe921e5c	-0.28538787
63	0x3d5e44f9	0.054264996
64	0xbde631b2	-0.112399474
65	0x3e262f98	0.16229093
66	0x3e8acc9c	0.2710923
67	0xbea88bd1	-0.3291917
68	0x3d48e013	0.04904182
69	0x3c087a24	0.008329902
70	0xbe1f4d11	-0.15556742
71	0xbe684e67	-0.22686158
72	0xbd4614df	-0.048359748
73	0x3ce44321	0.02786404
74	0x3e0f183d	0.1397409
75	0x3e1a59e1	0.15073349
76	0x3d3c2650	0.045934975
77	0x3c379d92	0.011207001
78	0x3e482a00	0.19547272
79	0xbdb4dbb4	-0.088309675
80	0x3e71e06b	0.23620765
81	0x3dd9e512	0.10639395
82	0x3dff7115	0.124727406
83	0x3dcb0aab	0.09914144
84	0x3df3c345	0.11902479
85	0xbdc4f429	-0.09616882
86	0xbe451bd7	-0.19248901
87	0xbbf4e332	-0.007473373
88	0x3df53328	0.11972648
89	0x3ddd8d9b	0.10818025
90	0xbe32c0d8	-0.17456377
91	0xbde667fc	-0.11250302
92	0x3e3adb0a	0.1824762
93	0xbbfdca34	-0.0077450518
94	0xbe422b1d	-0.18961759
95	0xbd193955	-0.03740819
96	0x3dbeeadb	0.09322139
97	0xbe13e03d	-0.14441009
98	0xbd3f11c7	-0.046647813
99	0xbd6375ab	-0.05553214
100	0xbe863eff	-0.26219937
101	0x3e430b4e	0.19047281
102	0xbe581871	-0.21103074
103	0xbd854f2b	-0.06509241
104	0xbdaa16ec	-0.08305153
105	0xbda6f333	-0.08151855
106	0xbdb2c3ab	-0.08728727
107	0x3eba74de	0.36417288
108	0xbe002598	-0.12514341
109	0x3b988314	0.0046542976
110	0x3d7041cc	0.0586565
111	0xbe7661ec	-0.24060792
112	0xbe7d3f06	-0.24731073
113	0x3d17f6f5	0.03710075
114	0xbdaed86e	-0.085373744
115	0x3e3585a7	0.17726766
116	0xbdd33632	-0.10313071
117	0xbda6ae4e	-0.08138715
118	0xbdc1d725	-0.09464864
119	0x3c9b5f04	0.018966205
120	0xbb4c2fa8	-0.0031156335
121	0xbea919e0	-0.33027554
122	0xbde0a15c	-0.10968277
123	0xbdce0f66	-0.10061531
124	0x3b219a75	0.0024658714
125	0x3e8d54f5	0.2760388
126	0xbe42c57a	-0.19020644
127	0x3e7181ab	0.2358462
128	0xbe0ec4c1	-0.13942243
129	0xbd5c780c	-0.053825423
130	0xbdf535f3	-0.119731806
131	0x3d9dcfad	0.07705627
132	0xbe2294da	-0.15877095
133	0xbd876aa0	-0.06612134
134	0x3c253584	0.01008356
135	0x3d3f384a	0.04668454
136	0xbdbf50d4	-0.093415886
137	0xbcaa8b2a	-0.020818312
138	0xbdc06196	-0.09393613
139	0xbdc96acd	-0.09834824
140	0x3db0a43e	0.08625077
141	0xbdcc9dce	-0.09991036
142	0x3e1fa937	0.15591894
143	0x3e4911f5	0.19635756
144	0x3c0cd6de	0.00859615
145	0xbd8dddd8	-0.06927079
146	0xbd020515	-0.031743128
147	0xbd2c52e3	-0.042071234
148	0xbc3b209c	-0.011421349
149	0x3d39530c	0.045245215
150	0xbe2aea74	-0.16691
151	0xbbfeeb8b	-0.0077795438
152	0xbd924b06	-0.07143216
153	0xbd868f5e	-0.06570314
154	0xbcff0c4a	-0.03113379
155	0xbe40cb3c	-0.18827528
156	0x3de65c82	0.11248113
157	0xbdef685e	-0.11689828
158	0x3d99eb91	0.07515634
159	0x3e11025a	0.14161053
160	0x3deb6295	0.114934124
161	0xbd5a3695	-0.05327471
162	0xbd6f4ed0	-0.05842477
163	0xbe030fc0	-0.12798977
164	0xbdd30428	-0.10303527
165	0xbc8e3df1	-0.01736352
166	0xbd3bf69d	-0.045889486
167	0x3d6abf22	0.057311185
168	0xbdb882c0	-0.090093136
169	0x3e011ea4	0.12609345
170	0x3e2f00bf	0.17090128
171	0x3dc31313	0.095251225
172	0x3d80150b	0.06254014
173	0xbc7943eb	-0.015213947
174	0xbcceb5fc	-0.025233261
175	0x3d5434f8	0.051808327
176	0x3d36f64a	0.044668473
177	0xbc9413d0	-0.018075854
178	0x3dae5663	0.08512571
179	0xbdcb3bf8	-0.099235475
180	0xbda4eeb9	-0.08053345
181	0x3d268b49	0.040660176
182	0xbd8f8e52	-0.07009567
183	0xbd12f337	-0.03587648
184	0x3e0bdbad	0.13658018
185	0xbdb660ed	-0.08905206
186	0x39423291	0.00018520119
187	0x3d79c613	0.060979914
188	0xbd28edc6	-0.041242383
189	0x3b2b5e72	0.0026148823
190	0xbe63c940	-0.2224474
191	0x3c36943a	0.011143738
192	0x3c1f8c43	0.009738031
193	0xbe65917c	-0.22418779
194	0xbe30ff7d	-0.17284961
195	0xbd0b2dfb	-0.033979397
196	0x3d4169b4	0.047219947
197	0xbd0bf544	-0.03416945
198	0x3e81359e	0.2523622
199	0xbe258cc7	-0.16166984
200	0x3da25754	0.07926813
201	0xbdca87f6	-0.09889214
202	0x3dd15094	0.10220447
203	0x3d648342	0.05578924
204	0xbd4ef705	-0.050528545
205	0x3e1db5f2	0.15401438
206	0x3e27f3ae	0.1640155
207	0x3e3313d0	0.17488027
208	0x3e656920	0.22403383
209	0x3d6c429b	0.057680707
210	0x3b91c372	0.0044483477
211	0xbb8e11ab	-0.0043356023
212	0x3e067605	0.13130958
213	0x3db30449	0.08741052
214	0xbdfde680	-0.1239748
215	0xbe36f6d8	-0.17867601
216	0x3e33a271	0.17542435
217	0x3d8a0202	0.06738664
218	0x3de1d756	0.110274
219	0xbe4afbed	-0.19822665
220	0x3e98c8f0	0.29840803
221	0xbc0ce6e3	-0.00859997
222	0x3dbdc87f	0.09266757
223	0x3e07fc01	0.13279726
224	0x3e09fcfd	0.13475414
225	0x3e3b72d5	0.18305524
226	0xbcaab793	-0.020839488
227	0x3e8e3386	0.27773684
228	0xbe58392d	-0.21115561
229	0x3c77a3ed	0.015114767
230	0x3d9a76f7	0.07542222
231	0xbce6c3eb	-0.028169593
232	0x3e92c705	0.28667465
233	0x3e7c9561	0.24666359
234	0xbd52bf14	-0.051451758
235	0x3e3330dd	0.17499109
236	0x3dae68f4	0.08516112
237	0x3e7ffa70	0.24997878
238	0x3e119e39	0.14220513
239	0x3d3b5a02	0.045740135
240	0x3ed7e805	0.42169204
241	0xbe1a8fac	-0.15093869
242	0xbd90e612	-0.070751324
243	0xbcddacc1	-0.027059915
244	0xbda99977	-0.08281224
245	0x3f12b263	0.57303447
246	0x3dd07544	0.10178617
247	0x3eb0b0c5	0.34509864
248	0xbc3bc94b	-0.011461566
249	0x3d5276ad	0.05138271
250	0x3df45b82	0.11931516
251	0xbcc265bb	-0.02373015
252	0x3e132a55	0.14371617
253	0x3e5da9ba	0.21646777
254	0xbe319a58	-0.17344034
255	0x3e2f3eaa	0.17113748

lstm.weight_ih_l1 f4 [256, 64]
0	0xbe451519	-0.1924633
1	0x3ea5ee70	0.32408476
2	0xbe79babe	-0.24387643
3	0x3e7dd5b4	0.24788553
4	0x3e848d28	0.25888944
5	0xbf1038d0	-0.5633669
6	0x3ca7ce7e	0.020484205
7	0xbeca69f2	-0.39533955
8	0xbce1b5d7	-0.027552528
9	0x3e0f59c2	0.13999084
10	0x3e958484	0.29202664
11	0xbeabeb82	-0.33578116
12	0x3bd55d50	0.006511368
13	0x3d18ed07	0.037335422
14	0x3e1be9e7	0.15225945
15	0x3dc55007	0.09634405
16	0x3d78eb3a	0.060771205
17	0x3e2ba739	0.16763009
18	0xbcf8148f	-0.03028324
19	0x3e498f40	0.19683552
20	0x3d31230d	0.043246318
21	0x3eb91762	0.36150652
22	0x3e8c893e	0.27448457
23	0x3e3dc688	0.18532765
24	0xbe031b04	-0.12803274
25	0x3bd531d2	0.006506183
26	0x3a88f7b5	0.0010449799
27	0x3da7331b	0.081640445
28	0xbe834508	-0.25638604
29	0xbd694600	-0.056951523
30	0x3f0c2774	0.547477
31	0xbd353bf2	-0.04424662
32	0x3cb93111	0.022606404
33	0x3dfbcb90	0.12294686
34	0x3ec77bd1	0.38961652
35	0xbe012f94	-0.12615806
36	0xbdd401ab	-0.10351881
37	0xbf02401a	-0.5087906
38	0xbe2964cf	-0.16542362
39	0xbe38eb00	-0.18058395
40	0x3f2eee2d	0.6833218
41	0x3e05afe2	0.13055375
42	0xbe102272	-0.1407564
43	0x3de8a0d0	0.113587976
44	0x3ecf4ab6	0.40486687
45	0x3e4d09d4	0.2002328
46	0xbeb51d99	-0.35374144
47	0xbd9329ed	-0.07185731
48	0xbb86f2cb	-0.0041182986
49	0x3ee6c748	0.45073915
50	0xbe97de13	-0.29661617
51	0x3e1a19a2	0.1504884
52	0x3e4c1a7f	0.19931982
53	0xbdf40e37	-0.11916774
54	0x3eb530b1	0.3538871
55	0x3c87a1c8	0.016556635
56	0xbeea37f7	-0.45745823
57	0x3ec5ccbe	0.38632768
58	0x3ee8f049	0.45495823
59	0xbeeddc8e	-0.46457332
60	0x3e6c7b96	0.2309402
61	0xbe3cc7a0	-0.18435526
62	0x3ec63b93	0.38717327
63	0x3d689927	0.056786682
64	0xbdba0078	-0.09082121
65	0xbe5f50d3	-0.21808176
66	0x3e2cbd75	0.16869147
67	0x3cb7a9e5	0.02241988
68	0x3f0ef279	0.55838734
69	0xbe5659c2	-0.20932677
70	0xbd473a03	-0.04863931
71	0xbce533e9	-0.027978854
72	0x3f11a9e0	0.56899834
73	0x3efac4ad	0.48978177
74	0xbc3c3cb0	-0.011489078
75	0x3d403dd5	0.046933968
76	0xbe74d429	-0.23909058
77	0x3dc742a6	0.09729509
78	0xbdbe65cd	-0.09296761
79	0x3d665113	0.056229662
80	0xbe3e2bff	-0.1857147
81	0x3e4ab5aa	0.19795862
82	0xbe082811	-0.13296534
83	0x3eb3eef8	0.35143256
84	0x3d4bf4e3	0.04979409
85	0xbe3d505f	-0.1848769
86	0xbe0f7a52	-0.14011505
87	0x3d782590	0.060582697
88	0xbe077c5b	-0.13231032
89	0x3c96700a	0.018363971
90	0x3ddf0a01	0.1089058
91	0x3ef11d18	0.4709251
92	0x3d45b019	0.048263643
93	0xbe649551	-0.22322585
94	0xbee7ff43	-0.45311937
95	0x3bc2ffe7	0.005950916
96	0x3ec07a9f	0.37593552
97	0x3c8ae909	0.016956823
98	0x3d806fd5	0.0627133
99	0xbd07ac3d	-0.033123244
100	0xbc7d6df4	-0.015468109
101	0x3e8b3f14	0.27196562
102	0x3eaae10f	0.3337483
103	0xbdf467c0	-0.11933851
104	0x3e68242e	0.22670051
105	0xbe139ece	-0.14416048
106	0xbef2043e	-0.47268862
107	0x3eac3f5a	0.33642083
108	0x3ec9a4b9	0.39383486
109	0x3e83268b	0.25615343
110	0xbe724fbc	-0.23663229
111	0xbec642de	-0.3872289
112	0x3ef1716e	0.47156852
113	0x3c1b0813	0.009462374
114	0x3cb4245a	0.02198999
115	0x3e594dbf	0.21221064
116	0x3eae0e7f	0.33995435
117	0x3de34903	0.1109791
118	0x3e4aaf15	0.19793351
119	0x3e73eb5a	0.23820248
120	0xbe928565	-0.28617397
121	0xbe5c004b	-0.21484487
122	0x3ef2d71d	0.47429743
123	0xbdc2e13c	-0.09515616
124	0xbd8aa163	-0.06769063
125	0xbe7c6aa2	-0.24650052
126	0x3e82d364	0.25551903
127	0xbd841e8e	-0.0645114
128	0x3d96235e	0.073309645
129	0xbe73636c	-0.23768395
130	0xbdd4c556	-0.10389201
131	0x3ea75c13	0.32687435
132	0x3e208c9f	0.15678643
133	0xbcfc4cd5	-0.030798355
134	0x3ee4b2ee	0.44667763
135	0x3dfc3fac	0.12316832
136	0xbe43e2c4	-0.19129473
137	0x3e9200b0	0.2851615
138	0x3d0c6852	0.034279175
139	0xbec4a4dd	-0.3840703
140	0xbd981d3b	-0.0742745
141	0xbe74559e	-0.23860785
142	0x3f0a8ef8	0.54124403
143	0xbe98dfcc	-0.29858243
144	0x3e3ba4ea	0.18324628
145	0xbb25984f	-0.0025267785
146	0x3eaf67f9	0.34259012
147	0xbde67dce	-0.11254464
148	0xbe25a168	-0.16174853
149	0x3e20b42a	0.15693727
150	0xbe95733e	-0.29189485
151	0xbf09408f	-0.53614134
152	0xbef0c9af	-0.47028872
153	0xbec29af1	-0.38008836
154	0xbdf55483	-0.1197901
155	0xbf166b49	-0.58757454
156	0xbe946528	-0.28983426
157	0x3e92c3b7	0.28664944
158	0x3dea882d	0.11451755
159	0xbea307f3	-0.31842002
160	0xbe30bdb1	-0.17259862
161	0x3f597c83	0.84955615
162	0x3f664dc5	0.89962417
163	0x3ec87367	0.39150545
164	0xbea9d83b	-0.33172783
165	0xbece9fe5	-0.40356365
166	0xbe5c8847	-0.2153636
167	0x3e529bec	0.20567292
168	0x3d8408a7	0.06446963
169	0xbe001805	-0.12509163
170	0x3e3724c3	0.17885117
171	0xbeb8e267	-0.3611023
172	0x3d970798	0.07374495
173	0x3bfdde98	0.0077474825
174	0xbe8049b1	-0.25056222
175	0x3f1942ed	0.59867746
176	0xbe1c795f	-0.15280674
177	0xbd03f455	-0.032215435
178	0xbe3498ec	-0.1763646
179	0xbeeeb247	-0.4662039
180	0x3ea31af0	0.3185649
181	0x3e0adf55	0.13561757
182	0x3bd07299	0.0063613174
183	0xbeef7913	-0.4677206
184	0x3ddd4efd	0.108060814
185	0xbf21c9f4	-0.6319878
186	0xbeafa8b6	-0.34308404
187	0xbf128ffd	-0.5725096
188	0xbe009e6d	-0.12560435
189	0xbe6ebd63	-0.23314433
190	0xbec635de	-0.38712972
191	0xbeae3c7e	-0.34030527
192	0xbd23cc88	-0.039989978
193	0xbb50cd92	-0.003186081
194	0xbcdaac78	-0.026693568
195	0x3e6870bf	0.22699259
196	0x3f09c0c7	0.5380978
197	0xbdcd5f0e	-0.10027896
198	0x3f6343bc	0.8877523
199	0x3d3afd29	0.04565159
200	0x3e80c1de	0.2514791
201	0xbe6bb791	-0.23019244
202	0xbea3abda	-0.3196705
203	0xbf4b7ea3	-0.7949011
204	0x3d9471ed	0.07248292
205	0xbd511196	-0.051042162
206	0x3e85df69	0.2614701
207	0xbee182a2	-0.44044977
208	0xbe89eda8	-0.2693913
209	0x3cd9516a	0.026528079
210	0xbe7e368a	-0.24825493
211	0xbdd04154	-0.1016871
212	0x3eb757b6	0.35809106
213	0xbdb7a5f8	-0.08967203
214	0xbd9b86ec	-0.07594094
215	0xbd3ec3f3	-0.04657359
216	0xbe9eedde	-0.31040853
217	0xbe9aa814	-0.30206358
218	0x3d9ec633	0.07752647
219	0x3c94afab	0.018150171
220	0xbe16389f	-0.14670037
221	0x3e1845e8	0.14870417
222	0x3e08dc8a	0.13365379
223	0xbe2e17dd	-0.1700129
224	0x3e0cee86	0.13762864
225	0x3c39f793	0.01135053
226	0xba8ff1ad	-0.0010982059
227	0xbe90d34f	-0.28286216
228	0x3d9d9da6	0.07696085
229	0xbe97a141	-0.29615214
230	0xbeefa58a	-0.46805984
231	0x3eaa75ac	0.33292902
232	0x3ebf85f6	0.37406892
233	0x3da31cbe	0.079644665
234	0x3d3e0d55	0.046399433
235	0xbd38b860	-0.04509771
236	0xbd03b9d2	-0.032159634
237	0x3dacc60a	0.084362105
238	0x3ef3648a	0.47537643
239	0x3f057f4d	0.5214737
240	0xbea4e0ea	-0.32202846
241	0x3d53db95	0.05172308
242	0xbefcbd17	-0.49363014
243	0xbeb4b51c	-0.35294425
244	0x3e815932	0.25263363
245	0x3e919d6e	0.28440422
246	0xbed5fc07	-0.41793844
247	0x3d6a2164	0.05716075
248	0xbe5fdc85	-0.21861465
249	0xbe82c91b	-0.25544056
250	0x3de46bcb	0.111533724
251	0xbed9e18e	-0.42554897
252	0x3e39f731	0.18160702
253	0xbed668d6	-0.41876858
254	0xbf09b9e4	-0.5379927
255	0xbeb12c23	-0.34603986

lstm.weight_hh_l1 f4 [256, 64]
0	0x3d71b914	0.059014395
1	0x3c1be9df	0.009516208
2	0x3ed4d9a6	0.41572303
3	0xbe57cb37	-0.21073614
4	0xbc323bc9	-0.010878512
5	0x3f1fb473	0.6238472
6	0x3d0f2765	0.03494968
7	0xbdb9c5ca	-0.090709284
8	0xbd13b0cb	-0.036057275
9	0xbe85cb06	-0.26131457
10	0xbf1cb7ce	-0.61217964
11	0x3dce1d08	0.10064131
12	0xbef06176	-0.46949357
13	0x3cc71d27	0.024305893
14	0xbb2d4baa	-0.0026442804
15	0xbee11ffe	-0.4396972
16	0x3e8f5f78	0.28002524
17	0x3e8218b5	0.25409475
18	0xbce798fa	-0.028271187
19	0xbe539636	-0.2066277
20	0x3d414691	0.047186438
21	0xbd8e77ff	-0.06956481
22	0xbe8ee577	-0.27909443
23	0x3d5d5898	0.054039568
24	0xbebe2f4d	-0.37145463
25	0xbeb197cf	-0.34686133
26	0xbe263521	-0.16231205
27	0xbe3458e4	-0.17612034
28	0xbe9e1f0a	-0.30883056
29	0x3f1bca19	0.6085525
30	0x3ea2dc02	0.31808478
31	0xbebd7355	-0.37002054
32	0xbcbea50a	-0.023272056
33	0xbe7b8d18	-0.24565542
34	0xbe02cc6d	-0.12773295
35	0xbd2d8402	-0.04236222
36	0x3d9e2bf7	0.077232294
37	0x3d7cd595	0.061727125
38	0xbe177315	-0.14789994
39	0x3e718e5a	0.23589459
40	0x3ddc640c	0.1076127
41	0xbe019c15	-0.12657197
42	0x3df19564	0.11796072
43	0xbe3b428b	-0.18287103
44	0xbeed8d11	-0.46396688
45	0xbcbf0ec2	-0.023322467
46	0x3e1655fe	0.14681241
47	0xbec7721d	-0.3895425
48	0x3e140b54	0.14457446
49	0x3e2c6197	0.16834103
50	0xbe13e149	-0.14441408
51	0x3e077853	0.13229494
52	0xbef894f5	-0.48551145
53	0x3b0c79f0	0.0021434985
54	0xbd98dd92	-0.07464136
55	0xbd30e35d	-0.04318558
56	0x3c307446	0.010769909
57	0x3eafa3b0	0.3430457
58	0xbdbf0a60	-0.09328151
59	0xbea6e02c	-0.32592905
60	0xbefc810f	-0.49317214
61	0x3c5d329a	0.013500834
62	0x3e866f93	0.26257
63	0xbea59c4b	-0.32345805
64	0x3e8e0314	0.27736723
65	0x3db2ac33	0.08724251
66	0x3d99bd67	0.07506829
67	0x3d861d96	0.06548612
68	0xbedf1178	-0.43568015
69	0x3e820b3a	0.2539919
70	0xbd9d59fe	-0.0768318
71	0x3e96dacf	0.29463813
72	0x3caa0003	0.020751959
73	0x3ea407e6	0.32037276
74	0xbe9f2a37	-0.31086895
75	0xbdb61bf0	-0.088920474
76	0x3cfecb90	0.031102926
77	0xbdfc5986	-0.12321763
78	0x3e5abfee	0.21362278
79	0x3e80e301	0.2517319
80	0x3d0bd7cc	0.034141347
81	0xbd16f038	-0.036850184
82	0x3ccb06f8	0.024783596
83	0x3ded879e	0.115981326
84	0x3e41d2fd	0.18928142
85	0x3b54c935	0.0032468562
86	0x3d99e3c1	0.07514144
87	0xbdad4d1f	-0.08461975
88	0xbd47a2a8	-0.048739105
89	0xbf036c54	-0.5133717
90	0x3e057e27	0.13036405
91	0xbcf1d76c	-0.029521666
92	0xbdc552bb	-0.0963492
93	0xbd6d206d	-0.05789225
94	0x3e21a767	0.15786515
95	0xbebde8a4	-0.37091553
96	0xbe99362e	-0.29924148
97	0x3e120743	0.14260583
98	0x3dfc4daf	0.123195045
99	0x3e4bbcb8	0.19896209
100	0x3dbbadad	0.091639854
101	0xbe490c39	-0.19633569
102	0xbe5e9b86	-0.21739015
103	0x3eab21d3	0.33424243
104	0x3d2b328f	0.041796263
105	0xbe3ac80d	-0.18240376
106	0x3e750a9a	0.23929825
107	0x3ed0418f	0.40675017
108	0xbe09ac41	-0.13444616
109	0x3ef9e775	0.488094
110	0xbec1e43d	-0.37869444
111	0xbda6e414	-0.08148971
112	0x3e096d2a	0.13420549
113	0xbe6572f7	-0.22407137
114	0xbe66449c	-0.2248711
115	0xbe114bad	-0.14189024
116	0xbd88cad9	-0.06679315
117	0xbe92a882	-0.28644186
118	0x3dfeffae	0.12451111
119	0x3d6ce25a	0.057833053
120	0x3df21768	0.11820871
121	0x3cbc11a9	0.02295764
122	0x3d5d359d	0.054006208
123	0xbeed45bb	-0.46342263
124	0xbf0885c9	-0.5332914
125	0x3e854416	0.26028508
126	0x3acce768	0.0015632929
127	0xbdbcf3a7	-0.092261605
128	0xbcb1f49f	-0.02172309
129	0x3e4a0081	0.19726755
130	0x3e7a19d0	0.24423909
131	0xbe209ace	-0.15684053
132	0x3e0da444	0.13832194
133	0xbe29f787	-0.1659833
134	0xbebc65cc	-0.36796415
135	0xbe86b178	-0.26307273
136	0xbee6b9c2	-0.45063597
137	0xbdaed379	-0.08536429
138	0x3e60a902	0.21939471
139	0x3dfdb327	0.12387686
140	0x3e19dc17	0.15025364
141	0x3e8b51a4	0.27210724
142	0xbcf44914	-0.029820003
143	0xbee6afb4	-0.45055926
144	0xbe5a5427	-0.21321164
145	0x3d1458c5	0.03621747
146	0x3e9669b1	0.2937751
147	0xbe99d80e	-0.3004765
148	0xbb0a4bee	-0.0021102387
149	0xbe3ea9c6	-0.18619451
150	0xbe064e66	-0.13115844
151	0xbed1b140	-0.40955544
152	0x3f361cdc	0.71137786
153	0x3e9102e7	0.28322527
154	0xbd49c055	-0.049255688
155	0x3d22e902	0.039772995
156	0xbd230c6d	-0.039806772
157	0x3e724830	0.2366035
158	0xbe9c33dc	-0.30508316
159	0x3e314e64	0.1731506
160	0x3eed01a8	0.46290326
161	0x3e63afec	0.22235078
162	0xbe3359b1	-0.17514683
163	0xbecbcd62	-0.39805132
164	0xbe7e63e8	-0.24842799
165	0x3d8e6f16	0.06954782
166	0x3de9330c	0.113866895
167	0x3e89f1d9	0.26942328
168	0xbd25548f	-0.040363844
169	0xbdf769ce	-0.120807275
170	0x3c8c7b0a	0.017148513
171	0x3f3bb7c4	0.7332728
172	0x3ea6c022	0.3256846
173	0x3ecd04a9	0.40042618
174	0xbe403bae	-0.18772766
175	0x3e3e9bec	0.18614167
176	0x3e81fc72	0.25387913
177	0x3eb18774	0.34673655
178	0x3e24c678	0.16091335
179	0x3e1451b0	0.14484286
180	0xbcdb0233	-0.026734447
181	0xbea3c06e	-0.3198275
182	0xbecd1489	-0.4005473
183	0xbe2d87a7	-0.16946279
184	0x3debacfb	0.11507603
185	0xbe41836b	-0.18897788
186	0xbf1fa42b	-0.62359875
187	0x3eac66ae	0.33672088
188	0x3e1c9fe4	0.15295368
189	0x3e1ba639	0.15200128
190	0xbccb396c	-0.024807654
191	0xbe37cabe	-0.17948434
192	0xbeb65f1c	-0.35619438
193	0xbf02ad6e	-0.5104588
194	0xbea21e6b	-0.31663832
195	0xbec1591c	-0.37763298
196	0xbe88c7f4	-0.26715052
197	0x3e8d33ad	0.27578488
198	0x3e9ad5f0	0.30241346
199	0xbe10ccdc	-0.14140648
200	0xbdbc30b2	-0.091889754
201	0xbedabeb3	-0.42723617
202	0xbd30b01b	-0.043136697
203	0xbe8fb284	-0.28065884
204	0xbde06938	-0.10957569
205	0x3a8f29c8	0.0010922486
206	0x3e47413a	0.19458476
207	0x3d1fe06f	0.039032396
208	0x3d44c18e	0.04803615
209	0xbe25afba	-0.16180316
210	0x3ec1c080	0.37842178
211	0xbed17b1f	-0.40914246
212	0xbdd6ddb4	-0.10491505
213	0x3c09ea04	0.00841761
214	0x3e8e43b8	0.2778604
215	0x3ebfd082	0.37463766
216	0xbdacd943	-0.08439877
217	0x3f0252b7	0.5090746
218	0xbe593f00	-0.21215439
219	0x3dde588a	0.10856731
220	0xbf3e63fb	-0.7437131
221	0x3ee9db7e	0.45675272
222	0xbe8b70aa	-0.27234393
223	0x3d805641	0.062664516
224	0xbb6f56c4	-0.0036520222
225	0xbe8f3a7f	-0.27974316
226	0xbdac0792	-0.083998814
227	0xbf0a6141	-0.5405465
228	0xbdadab29	-0.08479912
229	0x3e51c650	0.20485806
230	0x3eb6d9fd	0.35713187
231	0x3b71265c	0.0036796546
232	0xbdcd9802	-0.10038759
233	0x3d96bed2	0.07360615
234	0x3cd9f6c7	0.02660693
235	0x3d32d460	0.043659568
236	0x3d801f0f	0.06255924
237	0x3e14add9	0.14519443
238	0xbe18b645	-0.1491328
239	0xbe87f5bc	-0.26554668
240	0x3ee43a0d	0.4457554
241	0xbe9be4a3	-0.30447873
242	0x3d5efec4	0.054442182
243	0x3e8cb8b3	0.27484664
244	0xbe4641ad	-0.19360991
245	0x3d871a5c	0.065968245
246	0x3e48cfac	0.1961047
247	0xbd1cf79e	-0.038322084
248	0x3e3fc952	0.18729141
249	0x3e20e1cf	0.15711139
250	0xbdddf2c2	-0.10837318
251	0xbdb3ce13	-0.0877954
252	0xbe8366c8	-0.25664353
253	0xbb48f929	-0.003066609
254	0x3c0e9095	0.008701463
255	0xbe2cf967	-0.16892014

lstm.bias_ih_l1 f4 [256]
0	0x3bee6440	0.0072751343
1	0xbe4e9a4f	-0.20176052
2	0x3e3dd9cf	0.18540119
3	0xbe06b728	-0.13155806
4	0x3b5fc55b	0.0034144733
5	0xbd128a43	-0.035776388
6	0xbe52e62a	-0.20595613
7	0xbe187965	-0.14890058
8	0xbe27dbf9	-0.16392507
9	0xbe071d75	-0.1319483
10	0x3dbbf961	0.091784246
11	0xbd3f14cf	-0.046650704
12	0xbdcb2944	-0.0991998
13	0x3e04e236	0.12976918
14	0xbe02ea53	-0.127847
15	0x3d9d05f2	0.076671496
16	0x3d8e7708	0.06956297
17	0xbe5c1a1b	-0.21494333
18	0xbe45a36d	-0.19300623
19	0xbeaf15ab	-0.3419622
20	0xbc2f3278	-0.010693185
21	0xbe2fb661	-0.17159416
22	0xbde56cf0	-0.11202419
23	0xbc1da89c	-0.009622719
24	0xbd3b2497	-0.04568919
25	0xbea3d881	-0.32001117
26	0xbea44a90	-0.32088137
27	0xbc6d8639	-0.014497333
28	0xbe6955bc	-0.22786611
29	0xbda1b357	-0.078955345
30	0xbddc8e0a	-0.10769279
31	0x3a2b8c08	0.00065439986
32	0x3e197ead	0.14989729
33	0x3dfeb102	0.12436105
34	0xbea132cd	-0.3148407
35	0xbbcd986e	-0.0062742746
36	0x3eb32cd9	0.34995154
37	0x3d620d31	0.05518836
38	0xbc1879d4	-0.00930639
39	0x3e5d84c4	0.21632677
40	0xbe8620b3	-0.26196823
41	0xbe3b10ff	-0.18268202
42	0xbc3f6355	-0.011681397
43	0xbd0ade6b	-0.03390352
44	0xbe6169b6	-0.22012982
45	0xbe237bdc	-0.15965217
46	0xbe6a908a	-0.229067
47	0xbbd2ebca	-0.0064367997
48	0xbe9f644b	-0.31131205
49	0x3e247088	0.16058552
50	0xbe52a716	-0.2057155
51	0xbe1f8bab	-0.15580623
52	0xbc0f3657	-0.008740983
53	0xbd6f1487	-0.058369186
54	0x3d0f0b2c	0.034922764
55	0xbe2772e9	-0.16352428
56	0xbdf30a4c	-0.11867198
57	0x3de8317f	0.11337566
58	0xbdbc015f	-0.09179949
59	0xbec20d0d	-0.37900582
60	0xbca8ee53	-0.020621454
61	0xbca1f9f6	-0.019772511
62	0xbe6fdc6d	-0.2342393
63	0xbd6185a8	-0.055059105
64	0xbd989e30	-0.07452047
65	0xbe070ba4	-0.13188034
66	0xbda301f5	-0.07959358
67	0xbd049ba5	-0.032374997
68	0xbd89dbfa	-0.0673141
69	0x3c928c31	0.017889114
70	0xbe7893f7	-0.24275194
71	0xbe281124	-0.16412789
72	0xbe38255e	-0.17983004
73	0xbe0f5cc3	-0.1400023
74	0x3df34086	0.11877541
75	0x3e09b715	0.13448747
76	0xbe6524f1	-0.22377373
77	0x3d5efef9	0.05444238
78	0xbdf6772d	-0.1203445
79	0xbcacd2b9	-0.021096574
80	0x3e3aecac	0.18254346
81	0x3e473ae7	0.19456063
82	0xbb969ecb	-0.0045965663
83	0xbe3ba93a	-0.18326274
84	0x3d84ce0c	0.06484613
85	0xbd846d1e	-0.06466125
86	0x3e5339c1	0.206275
87	0xbe629fa8	-0.22131217
88	0x3df9db5c	0.122000426
89	0xbe40b294	-0.18818122
90	0xbdc2c50b	-0.09510239
91	0x3e24c62f	0.16091226
92	0x3bac430b	0.0052570156
93	0xbd9f4667	-0.077771
94	0xbe15555e	-0.14583346
95	0xbddc72c0	-0.10764074
96	0x3e614020	0.21997118
97	0xbe8cb9e8	-0.27485585
98	0xbe607f85	-0.21923645
99	0xbd8194f8	-0.06327242
100	0xbd9ce8f0	-0.07661617
101	0x3d8d6c40	0.06905413
102	0x3d7b9201	0.061418537
103	0x3d121b14	0.035670355
104	0x3dbf905c	0.09353706
105	0xbc3bc28a	-0.011459956
106	0xbe9320fb	-0.287361
107	0xbbf1ac8d	-0.007375306
108	0x3cf0fb7a	0.029416788
109	0xbdc831ee	-0.09775148
110	0xbe2f4a36	-0.17118153
111	0xbdec8e0f	-0.11550533
112	0x3b924182	0.0044633755
113	0xbdbd91fe	-0.092563614
114	0xbad6323f	-0.0016341879
115	0xbe1d6b18	-0.15372884
116	0x3d88234c	0.06647357
117	0xbc92f06d	-0.01793691
118	0x3d60c705	0.0548773
119	0xbd4a45ed	-0.049383093
120	0x3d03f7d0	0.032218754
121	0x3d6580be	0.05603098
122	0xbd2cd6ae	-0.042196922
123	0xbe7ee2c0	-0.24891186
124	0xbcb43889	-0.021999614
125	0xbd06e7fd	-0.032936085
126	0xbc95bd4f	-0.018278746
127	0xbcdffcda	-0.027342249
128	0x3d860555	0.06543986
129	0xbe2d2bc2	-0.16911224
130	0xbd8085d5	-0.062755264
131	0x3d10f2c4	0.03538777
132	0x3e014cab	0.12626903
133	0x3ddd3b2a	0.108023
134	0xbd9ff10c	-0.07809648
135	0xbd93d319	-0.07217998
136	0xbde32297	-0.11090582
137	0x3c8d79d2	0.017270003
138	0x3cf94282	0.030427221
139	0x3c359636	0.011083176
140	0x3d361eac	0.044462845
141	0x3cbd3a95	0.023099223
142	0xbe54007a	-0.20703307
143	0xbdca6add	-0.09883664
144	0xbd685ffc	-0.056732163
145	0xbe0ae058	-0.13562143
146	0x3d4482b6	0.04797622
147	0x3d324fbf	0.043533083
148	0x3e5f58eb	0.21811263
149	0xbb57b85e	-0.0032916288
150	0x3e285ad3	0.16440897
151	0x3d70cac8	0.058787137
152	0x3cef34aa	0.029199917
153	0x3cbcb975	0.023037652
154	0x3db4c902	0.08827402
155	0xbd8e4e2b	-0.06948503
156	0xbdb65989	-0.08903796
157	0xbc9380f0	-0.018005818
158	0x3b984e0b	0.0046479753
159	0x3d17c47c	0.037052616
160	0x3ca03a0a	0.019558925
161	0xbd96cf44	-0.073637515
162	0xbcfe9bf2	-0.03108022
163	0xbba3e3ac	-0.005001506
164	0xbe2460c3	-0.16052537
165	0x3d233761	0.039847735
166	0x3d6f293b	0.05838893
167	0xbce5bca0	-0.028044045
168	0xbdba1c8e	-0.090874776
169	0xbb8fa4e5	-0.0043836706
170	0x3e0ffe95	0.14061959
171	0xbe505c5b	-0.20347731
172	0xbc154a3e	-0.009111939
173	0xbdedb1c5	-0.116061725
174	0x3d911648	0.07084328
175	0x3d2d78c0	0.042351484
176	0x3dd1d672	0.1024598
177	0x3d8db0f0	0.06918514
178	0x3ddedfe2	0.10882546
179	0x3d46ce1b	0.0485364
180	0x3d45c6cc	0.04828529
181	0xbd7e7087	-0.062119033
182	0x3df93fa9	0.12170345
183	0x3ea4ecb8	0.32211852
184	0xbe13a058	-0.14416635
185	0xbd842ad8	-0.06453484
186	0x3d92ea71	0.071736224
187	0x3d903228	0.070408165
188	0x3cc383db	0.023866585
189	0xbe447947	-0.19186889
190	0x3d98b6b7	0.07456725
191	0xbd17b40c	-0.03703694
192	0x3dfd0ce0	0.12355971
193	0xbdd80a21	-0.10548807
194	0x3e370dc6	0.17876348
195	0xbce465e6	-0.02788062
196	0x3e90f5f6	0.28312653
197	0x3e470e9c	0.19439167
198	0xbe534b36	-0.2063416
199	0x3e186358	0.14881647
200	0xbe223b36	-0.158429
201	0xbe09208b	-0.1339132
202	0x3db99316	0.090612575
203	0x3d6a15eb	0.05714981
204	0x3ddbf83a	0.10740705
205	0x3e56de3c	0.20983213
206	0xbe3d9447	-0.18513595
207	0xbd7ef115	-0.062241632
208	0x3e33da67	0.17563783
209	0xbd9a86f6	-0.07545273
210	0xbceb65da	-0.02873509
211	0xbe9886f3	-0.29790458
212	0xbe2a8b43	-0.16654687
213	0xbdf01ab6	-0.11723845
214	0xbe082c8d	-0.13298245
215	0xbe87312a	-0.26404697
216	0x3d78317e	0.060594074
217	0xbe1c14ca	-0.15242305
218	0xbe66b47e	-0.2252979
219	0x3ddb446b	0.10706409
220	0xbd70aed1	-0.058760468
221	0x3e01cd74	0.1267603
222	0xbccb9e3d	-0.024855727
223	0xbd7f8772	-0.06238503
224	0xbd483373	-0.04887719
225	0x3d9c95be	0.076457486
226	0xbe0d2261	-0.13782646
227	0xbd0e10bb	-0.034683924
228	0x3ec66735	0.38750616
229	0x3e3438bb	0.17599766
230	0xbdf32cd6	-0.11873786
231	0x3e032956	0.12808737
232	0xbd0f591f	-0.034997102
233	0xbde084d4	-0.10962835
234	0x3d8382a0	0.06421399
235	0x3d2f8684	0.042852893
236	0xbe0e5567	-0.13899766
237	0xbadc0ee5	-0.0016789107
238	0xbe525576	-0.20540413
239	0xbdcf766d	-0.1013001
240	0xbe79c744	-0.2439242
241	0x3e367d87	0.17821322
242	0xbe4b3d06	-0.19847497
243	0x3d414dc0	0.04719329
244	0x3de60349	0.11231095
245	0x3d843eaa	0.06457265
246	0xbc86eac3	-0.016469365
247	0x3d1f180d	0.038841296
248	0xbca2ee6c	-0.019889079
249	0xbba49868	-0.005023051
250	0x3d39aa91	0.04532868
251	0xbd8d6e2d	-0.0690578
252	0xbe1f12ae	-0.1553447
253	0xbd664329	-0.056216393
254	0xbdafc280	-0.0858202
255	0xbd8774cf	-0.06614076
